…
    "        loss = 'categorical_crossentropy',\n",
    "        optimizer = 'adam', metrics=['accuracy']\n",
    "    )\n",
    "    \n",
    "    return model"
   ]
  },
  {
   "cell_type": "code",
   "execution_count": 6,
   "metadata": {},
   "outputs": [
    {
     "name": "stdout",
     "output_type": "stream",
     "text": [
      "Model: \"sequential\"\n",
      "_________________________________________________________________\n",
      "Layer (type)                 Output Shape              Param #   \n",
      "=================================================================\n",
      "conv2d (Conv2D)              (None, 32, 32, 32)        896       \n",
      "_________________________________________________________________\n",
      "conv2d_1 (Conv2D)            (None, 30, 30, 32)        9248      \n",
      "_________________________________________________________________\n",
      "max_pooling2d (MaxPooling2D) (None, 15, 15, 32)        0         \n",
      "_________________________________________________________________\n",
      "dropout (Dropout)            (None, 15, 15, 32)        0         \n",
      "_________________________________________________________________\n",
      "conv2d_2 (Conv2D)            (None, 15, 15, 64)        18496     \n",
      "_________________________________________________________________\n",
      "conv2d_3 (Conv2D)            (None, 13, 13, 64)        36928     \n",
      "_________________________________________________________________\n",
      "max_pooling2d_1 (MaxPooling2 (None, 6, 6, 64)          0         \n",
      "_________________________________________________________________\n",
      "dropout_1 (Dropout)          (None, 6, 6, 64)          0         \n",
      "_________________________________________________________________\n",
      "conv2d_4 (Conv2D)            (None, 6, 6, 128)         73856     \n",
      "_________________________________________________________________\n",
      "conv2d_5 (Conv2D)            (None, 4, 4, 128)         147584    \n",
      "_________________________________________________________________\n",
      "max_pooling2d_2 (MaxPooling2 (None, 2, 2, 128)         0         \n",
      "_________________________________________________________________\n",
      "dropout_2 (Dropout)          (None, 2, 2, 128)         0         \n",
      "_________________________________________________________________\n",
      "flatten (Flatten)            (None, 512)               0         \n",
      "_________________________________________________________________\n",
      "dense (Dense)                (None, 10)                5130      \n",
      "=================================================================\n",
      "Total params: 292,138\n",
      "Trainable params: 292,138\n",
      "Non-trainable params: 0\n",
      "_________________________________________________________________\n"
     ]
    }
   ],
   "source": [
    "model = create_model()\n",
    "model.summary()"
   ]
  },
  {
   "cell_type": "markdown",
   "metadata": {},
…
